# YOLOv5 🚀 by Ultralytics, GPL-3.0 license

# Parameters
nc: 1  # number of classes
depth_multiple: 1 # model depth multiple
width_multiple: 1  # layer channel multiple
anchors:
#  - [10,13, 8,30, 33,23]  # P3/8
#  - [30,61, 32,45, 59,119]  # P4/16
#  - [18,90, 156,194, 373,326]  # P5/32
  - [116,90, 156,198, 373,326]  # P5/32

# YOLOv5 v6.0 backbone
backbone:
  # [from, number, module, args]
  [
    [ -1, 1, Conv, [ 2, 3, 2, 1 ] ],  # 1/2
    [ -1, 1, DWConv, [ 2, 3, 1, 1 ] ],
    [ -1, 1, Conv, [ 2, 1, 1, 0 ] ],

    [ -1, 1, DWConv, [ 2, 3, 1, 1 ] ],  # 1/2
    [ -1, 1, Conv, [ 2, 1, 1, 0 ] ],
    [ -1, 1, DWConv, [ 2, 3, 1, 1 ] ],
    [ -1, 1, Conv, [ 2, 1, 1, 0 ] ],


    [ -1, 1, DWConv, [ 4, 3, 2, 1 ] ],  # 1/4
    [ -1, 1, Conv, [ 4, 1, 1, 0 ] ],
    [ -1, 1, DWConv, [ 4, 3, 1, 1 ] ],
    [ -1, 1, Conv, [ 4, 1, 1, 0 ] ],

    [ -1, 1, DWConv, [ 4, 3, 1, 1 ] ],  # 1/4
    [ -1, 1, Conv, [ 4, 1, 1, 0 ] ],
    [ -1, 1, DWConv, [ 4, 3, 1, 1 ] ],
    [ -1, 1, Conv, [ 4, 1, 1, 0 ] ],


    [ -1, 1, DWConv, [ 8, 3, 2, 1 ] ],  # 1/8
    [ -1, 1, Conv, [ 8, 1, 1, 0 ] ],
    [ -1, 1, DWConv, [ 8, 3, 1, 1 ] ],
    [ -1, 1, Conv, [ 8, 1, 1, 0 ] ],

    [ -1, 1, DWConv, [ 8, 3, 1, 1 ] ],  # 1/8
    [ -1, 1, Conv, [ 8, 1, 1, 0 ] ],
    [ -1, 1, DWConv, [ 8, 3, 1, 1 ] ],
    [ -1, 1, Conv, [ 8, 1, 1, 0 ] ],
    [ -1, 1, DWConv, [ 8, 3, 1, 1 ] ],
    [ -1, 1, Conv, [ 8, 1, 1, 0 ] ],

    [ -1, 1, DWConv, [ 16, 3, 2, 1 ] ],  # 1/16
    [ -1, 1, Conv, [ 16, 1, 1, 0 ] ],
    [ -1, 1, DWConv, [ 16, 3, 1, 1 ] ],
    [ -1, 1, Conv, [ 16, 1, 1, 0 ] ],

    [ -1, 1, DWConv, [ 16, 3, 1, 1 ] ],  # 1/16
    [ -1, 1, Conv, [ 16, 1, 1, 0 ] ],
    [ -1, 1, DWConv, [ 16, 3, 1, 1 ] ],
    [ -1, 1, Conv, [ 16, 1, 1, 0 ] ],
    [ -1, 1, DWConv, [ 16, 3, 1, 1 ] ],
    [ -1, 1, Conv, [ 16, 1, 1, 0 ] ],
    [ -1, 1, DWConv, [ 16, 3, 1, 1 ] ],
    [ -1, 1, Conv, [ 16, 1, 1, 0 ] ],
    [ -1, 1, DWConv, [ 16, 3, 1, 1 ] ],
    [ -1, 1, Conv, [ 16, 1, 1, 0 ] ],

    [ -1, 1, DWConv, [ 32, 3, 2, 1 ] ],  # 1/32
    [ -1, 1, Conv, [ 32, 1, 1, 0 ] ],
    [ -1, 1, DWConv, [ 32, 3, 1, 1 ] ],
    [ -1, 1, Conv, [ 32, 1, 1, 0 ] ],

    [ -1, 1, DWConv, [ 32, 3, 1, 1 ] ],  # 1/32
    [ -1, 1, Conv, [ 32, 1, 1, 0 ] ],
    [ -1, 1, DWConv, [ 32, 3, 1, 1 ] ],
    [ -1, 1, Conv, [ 32, 1, 1, 0 ] ],

  ]

# YOLOv5 v6.0 head
head:
  [
   [[-1], 1, Detect, [nc, anchors]],  # Detect(P3, P2, P5)
  ]
