# YOLOv5 🚀 by Ultralytics, GPL-3.0 license

# Parameters
nc: 1  # number of classes
depth_multiple: 1 # model depth multiple
width_multiple: 1  # layer channel multiple
anchors:
#  - [10,13, 16,30, 33,23]  # P3/8
#  - [30,61, 62,45, 59,119]  # P4/16
#  - [116,90, 156,198, 373,326]  # P5/32
  - [116,90, 156,198, 373,326]  # P5/32
  - [116,90, 156,198, 373,326]  # P5/32

# YOLOv5 v6.0 backbone
backbone:
  # [from, number, module, args]
  [
    [ -1, 1, Conv, [ 2, 3, 2, 1 ] ],  # 1/2
    [ -1, 3, Conv, [ 2, 3, 1, 1 ] ],

    [ -1, 1, Conv, [ 4, 3, 2, 1 ] ],  # 1/4
    [ -1, 3, Conv, [ 4, 3, 1, 1 ] ],

    [ -1, 1, Conv, [ 8, 3, 2, 1 ] ],  # 1/8
    [ -1, 3, Conv, [ 8, 3, 1, 1 ] ],

    [ -1, 1, Conv, [ 16, 3, 2, 1 ] ],  # 1/16
    [ -1, 3, Conv, [ 16, 3, 1, 1 ] ],

  ]

# YOLOv5 v6.0 head
head:
  [
   [[-1, -5], 1, Detect, [nc, anchors]],  # Detect(P3, P4, P5)
  ]
